pytorch/p3-FashionMNIST_fc_vs_conv/model_conv.pt (torch_old, 202537 bytes, 6 tensors)

features.0.weight f4 [32, 1, 3, 3]
00000000: 6481 483e 504d 513e 452d a83d 3d6b eb3d
00000010: b831 ab3e 6987 a43e 25fb 5abe f2a4 12bf
00000020: 88ef fdbe a121 f1be 8695 93bd 027c 6f3e
00000030: b63d 913e 7238 fb3e 8aa2 a3bd e739 2c3e
00000040: 1bd0 acbe 945b 30be 1319 15be e7e3 a1be
00000050: 2654 8abd 7003 d6bc 40a5 b03d 5505 413e
00000060: ce9d 583e c232 903e fb68 f9bc c1da dc3b
00000070: b880 cd3d e6b1 d8bd becc 013f ef94 c4bd
00000080: e240 d0be 09c4 b43e e72c 3f3d ac9e bcbe
00000090: eb4b debd a5e5 91bb f8cd c83d d4ff 483d
000000a0: e041 d4bf f4d2 c2bf 3f04 e03d aa39 53bf
000000b0: d9cb 4abf 4a34 86be e1b7 93be c4c9 96be
000000c0: 636c 6fbd f510 fdbd f0a0 633e 0e52 c43e
000000d0: 8855 2abb 0573 ed3e 97e5 853e 2e74 a33e
000000e0: f0a8 97be 7423 e53d e3ff e13e d3f5 223d
000000f0: 4c20 f2be 7044 f8bd 7c4b bf3e 1a3c 8cbe
00000100: 2551 b7be d240 073f 67d2 073e de12 0e3e
00000110: 987d ae3d 1fbc 953e 2555 9abe fd11 363e
00000120: 5316 513e 3fb2 81be 31e1 3f3d 8130 5b3e
00000130: 82ab 22be 8451 0dbe 8ac5 e5be 22cd b23e
00000140: cdce 283e 91d4 babd 373c 9f3e f72d 8c3e
00000150: 8672 e1be 24b9 183e e5dd 253e 79a2 e1be
00000160: f250 d53e f9d2 48be 59c5 df3e 5347 183f
00000170: da6c 4bbe 447d 8abe 0f81 0abf f5d4 a6bf
00000180: 40da 493e 4e98 83be 4f2b e7be a9b3 43be
00000190: 9cfc 893e 77da 4abe 5516 bd3e 09b3 6dbe
000001a0: 1edc 38be c719 a53e 1f5a 9fbc 21c7 9f3e
000001b0: 207b f1be cd2a 94bf c0cb bdbf d1a8 973e
000001c0: e435 34bf 45c1 8cbe c9d0 993e eef7 933e
000001d0: 5796 3ebe cdd5 c9be 6ec4 0dbc 98be 09be
000001e0: a889 d53e dc3a f73e 2f7c f7be f1a5 19be
000001f0: 0e63 d8bd 865d 21bd a9c6 fdbe 6795 8f3e
00000200: 2e81 4b3e 3c6e 203d 3d94 953e 900c 853d
00000210: 9dcc cfbe 8519 a03c 9ff8 e73e b454 09be
00000220: 650c 433e 0a3a 823d c9a8 f6be 0841 f1bd
00000230: dce0 973e b8cc 8ebe b55b 703d 376b cd3e
00000240: a151 dd3e c90d 99be ee02 26bf 654d 1fbf
00000250: 3af5 52bf a6a7 babf 1af5 0dbf a5d5 38bf
00000260: e77e bdbe e389 d73d 4223 223e b046 f1be
00000270: a5a9 4c3e db5e 3f3d e05b f3bc dc71 953e
00000280: 8e6b 0cbe b9e6 8ebd e2d5 5fbf a404 d5bf
00000290: d61b 5bbe 2512 06bf 8dc5 98bf 049f 02bd
000002a0: c5e3 b53e af17 823e 7441 fbbd 8c1d ad3d
000002b0: b8fc 80be 0448 9b3c bc14 933c 53e2 f4be
000002c0: deb8 d3be ca88 a23e 87d0 ac3e 21c9 ad3e
000002d0: 17c4 923d d564 4bbe 6b42 d73e 9a2a 00bf
000002e0: e9b1 b2be af28 343f 0ff3 0ebf 6fb4 613e
000002f0: a1c1 1f3e 6788 9fbf fffe 9bbf c347 333d
00000300: 850d 54bf 7e9e 5cbf 7cef 25bf 9546 49bf
00000310: 6a01 0cbf 01fe 17bf ebeb 8dbe cf72 2d3e
00000320: 537f 233e 3663 0bbf c4a1 dc3e 84fa f13d
00000330: bcc7 a83e c763 1d3e bfc7 fabe ecfb a5be
00000340: 5b61 453d 1cc8 d2bd 2388 943e 3cfc 0a3e
00000350: 7e97 b8bb 55e1 ecbc f97f 29be 9d8c ec3d
00000360: 7070 e9bc 1e06 0d3e 9089 f23c 907a 3cbe
00000370: fa91 113e e4ae 84bd a8ed 23be 8392 2ebe
00000380: 4039 b3bc 35a3 093e bac5 01bf 47d2 d23e
00000390: b25b 32be 5bb7 aebe d0f5 f23e 2f87 0e3e
000003a0: b56d 933d 00f6 3cbe 7f86 bd3e da0a 41be
000003b0: a6d2 c0be c8b6 5a3e 550a 813d 8c80 2bbd
000003c0: 82d8 d4be 17bc 4fbe eb17 0e3f 0b4d e5be
000003d0: 4a7c 6d3d 6225 cdbe b313 f8bd 8602 043e
000003e0: 9765 c4bd 24eb a5bd 4f92 4c3e 567b 173e
000003f0: d266 ed3d d9c5 9bbd 44c9 c53e 7920 9e3e
0.19580609 0.20439649 0.082117595 0.114950635 0.3343637 0.3213456 -0.21384867 -0.57282937
-0.4959681 -0.4709597 -0.07206254 0.23387149 0.28367394 0.49066502 -0.07989986 0.16818963
-0.33752522 -0.17222434 -0.14560346 -0.31619188 -0.06754331 -0.026124686 0.08625269 0.1884969
0.21153948 0.28163725 -0.030445566 0.0067399447 0.10034317 -0.105808064 0.50703037 -0.09598719
-0.40674502 0.35305813 0.04667368 -0.36839807 -0.10854324 -0.0044524246 0.098049104 0.0490721
-1.6582603 -1.5220628 0.1093831 -0.82509863 -0.79217297 -0.26211768 -0.28851226 -0.2945081
-0.058452975 -0.1235675 0.22229362 0.38343853 -0.0025990922 0.46376815 0.26151726 0.31924576
-0.29621077 0.11188403 0.4414054 0.039785217 -0.47290266 -0.121224284 0.37362278 -0.27389604
-0.35804096 0.5283328 0.13263856 0.13874385 0.08520049 0.29245088 -0.30143085 0.177803
0.20418672 -0.25331303 0.04684562 0.21405222 -0.15885738 -0.13800627 -0.44877273 0.3492213
0.16485138 -0.09122575 0.31100628 0.27378818 -0.44032687 0.14914376 0.16197927 -0.4406927
0.4166332 -0.1961173 0.43705252 0.5948383 -0.19865742 -0.27048695 -0.5410318 -1.3033739
0.19712162 -0.25702137 -0.4515023 -0.19111504 0.26950538 -0.198099 0.369311 -0.23212828
-0.18052718 0.3224623 -0.019452153 0.3120661 -0.4716425 -1.1575562 -1.4827805 0.29620984
-0.7039473 -0.27491203 0.30042103 0.28900093 -0.18612038 -0.3942093 -0.0086527895 -0.13451612
0.41706586 0.48287094 -0.48336932 -0.15004708 -0.10565768 -0.03939583 -0.49565628 0.28043672
0.19873497 0.039167628 0.2921466 0.06496537 -0.40585795 0.019543419 0.4530687 -0.13411218
0.19047697 0.06358726 -0.48175648 -0.11779982 0.29663742 -0.27890563 0.05868121 0.4012086
0.4322634 -0.2989333 -0.6484822 -0.6222747 -0.82405436 -1.4582412 -0.5545212 -0.72200996
-0.3701088 0.10524347 0.15833762 -0.47124243 0.19986589 0.04672132 -0.029706895 0.2918843
-0.13712904 -0.069776006 -0.87435734 -1.6642041 -0.21397337 -0.52371436 -1.1935288 -0.03188993
0.35525337 0.25408694 -0.122683436 0.08452901 -0.2519281 0.018955238 0.017954223 -0.47828922
-0.4135198 0.31744987 0.33752844 0.33942512 0.071663074 -0.19862683 0.4204286 -0.50065005
-0.3490136 0.7037458 -0.5583963 0.22041486 0.15601207 -1.2463502 -1.2187194 0.04376961
-0.8283313 -0.8617934 -0.6481855 -0.78623325 -0.5468966 -0.59371954 -0.27719054 0.16938327
0.15966539 -0.5444826 0.43092167 0.1181536 0.32964885 0.15370093 -0.4898052 -0.32418764
0.04818855 -0.10292074 0.29010114 0.13572782 -0.0056332937 -0.02891604 -0.16552724 0.11550257
-0.028495997 0.13771865 0.02960661 -0.18406129 0.14215842 -0.0647867 -0.16008627 -0.17048077
-0.021877885 0.13441165 -0.5069233 0.41176054 -0.17417791 -0.34124264 0.47453165 0.13918756
0.07198659 -0.18453217 0.37016675 -0.18851796 -0.37660712 0.21358788 0.06300799 -0.04187064
-0.41571432 -0.20286594 0.55505246 -0.44785342 0.05797986 -0.40067583 -0.12113132 0.12891588
-0.09589689 -0.0810149 0.19977687 0.14793143 0.11591877 -0.07606096 0.38630116 0.3088415

features.0.bias f4 [32]
00000000: 445d 03bc 58bd e6bb 0abe 9b3d e3b1 5bbc
00000010: a2da 9a3e 2f30 e93c 511c a6be 1591 84be
00000020: beae 9bbc c5e6 c8bd c517 d33d 1f0d 9bbe
00000030: 39cf ae3d 59eb e43d 38b5 c5be f806 c73c
00000040: c10a 273e 4383 15bd 002d ce3d 4d71 88bd
00000050: 644b 563d 4ffb 5c3e 6640 ffbc ebb9 ccba
00000060: ca42 aabe b579 a9bc 9f23 8fbb f791 a33d
00000070: 92d0 67bd 21ad f13d 919c abbc 3311 7b3e
-0.008017842 -0.0070416145 0.076046064 -0.013409111 0.3024493 0.028465359 -0.3244348 -0.2589194
-0.019004222 -0.09809641 0.10307268 -0.30283448 0.08535618 0.111777015 -0.3861482 0.024295315
0.16312696 -0.036502134 0.10067177 -0.066622354 0.05231799 0.21580242 -0.031158637 -0.0015619373
-0.3325408 -0.020687917 -0.00436826 0.07986825 -0.056595393 0.118006 -0.02094868 0.2451828

features.3.weight f4 [64, 32, 3, 3]
00000000: ef2a 7abe 0132 3fbd 5afd 693e 149f 2b3e
00000010: 4315 c23d 0373 f2bd 9afc f43d 1269 653d
00000020: d639 7a3d ccc8 51be f5fb 88be 1e0b a33e
00000030: b8ab fa3d c565 2e3d 073d 87be 8b07 553e
00000040: 429e 14bd 40c7 14bd 73b8 fdbd 058c 11be
00000050: f410 e2bd e1af 383c a37b 54bd 6bac 24be
00000060: 260d 17bc 1ef6 0ebe 39b6 03bd fce3 8bbd
00000070: f8ec f3bc b8d3 14be 4d50 393e 147c 683d
00000080: 4092 313e 6ac5 b43d 1304 6dbd 0182 94bd
00000090: 0faf 343e 07b0 3d3d 0888 343e 834a 24be
000000a0: 4640 f9bd 4f2f 1a3e d5d7 0dbe 3ac4 00be
000000b0: 0e1c 063e 9626 33be 5a67 dfbd 4177 e0be
000000c0: 3d69 803b 6b18 c9bd b646 2ebd 8bae a6b9
000000d0: d0f2 003d 3a47 133e e312 d2be a986 a8be
000000e0: 204c 923d 96eb ca3a 5a46 d2bd 1f21 3ebe
000000f0: 25cc a5be a97d 4dbe 927e 2abe 80da 1f3d
00000100: 2871 a13d 88c4 2f3e 8af3 f5bc 476d 77be
00000110: fb74 33bf 158b 92bc 2d28 91bd 7f98 c4be
00000120: c457 4fbe ec35 5ebc 6065 a0be 900e c03d
00000130: 7c2d ae3c 5df2 c63d bb00 683c ef92 25bd
00000140: 77db 1bbe c4e0 efbd 7ae2 953c baf2 663e
00000150: e484 b03c 4d67 1a3e a259 7bbc b72c 133e
00000160: 1ba9 6fbd c6fe 393e 08bb 083d 65bd cf3c
00000170: d544 a4bd 3ed1 8cbe ff3f 3e3c 41ff 633e
00000180: 6433 093e b6f6 88bc 2187 19be 4648 ddbe
00000190: 0ccf a7bd 632a 5a3c fd1c 89bd b932 79bd
000001a0: 2b19 19be 2d50 57bd bc18 2bbe 1b33 45be
000001b0: 5236 a43d becf 2abe ea21 75be 136b c1bd
000001c0: 7479 b33d 14e6 a63e c88f 21be f471 81be
000001d0: 2e1b 733e f330 b6b8 be3b cdbc 0443 0ebe
000001e0: 7dc7 943d 16b6 213e a45b 26bd 8467 913e
000001f0: bf43 28bd c13e 933b 0a97 f1bd 4035 23be
00000200: f1a2 413e 2c6b c23b 14bd a2be 0665 b9be
00000210: 07b4 7abd ae23 8cbe 29e6 80be ee2d ce3d
00000220: b044 19be b857 303b ce86 8f3e 88af 3ebe
00000230: 52f5 6fbe 622e 4e3e e007 cb3c 4db7 06bc
00000240: aea4 9b3d 1159 9d3d 95dc 7cbd 7ca6 f6bb
00000250: 6247 85be f21b ba3d 6a0b 663c feeb 7cbd
00000260: 029a ccbc cb59 72be 74be 47bc 5526 0dbe
00000270: bcf7 5b3e 87b2 363d 7882 e6bd bb77 d03d
00000280: 61eb 88bd ecf0 bfbb 118f b63d dba6 72bc
00000290: f727 29be 7bd3 a63d de4e 1ebb 530c 893e
000002a0: 8efc 84bc b940 45be 3c95 733e a89f 83be
000002b0: 8f39 c6be 3492 4fbe 28a8 22bc 3ba4 fcbd
000002c0: bc87 363e 894c 5a3e 9799 35bc d9e2 07be
000002d0: d04e 6b3c 7601 f9bc 5280 0f3e 7280 383e
000002e0: 4050 febc 4954 e9bd ea06 493e cf05 c3bc
000002f0: e89a 9fbd 53c5 e93d 6765 92bc 79e8 ab3d
00000300: 2225 6a3c 6afe 9bbe 32c8 1d3e d429 f4bd
00000310: db43 84be d601 0c3d a402 83be 5d1f 9ebd
00000320: 34b3 993e 47dd 80bc 2a8b d03d f979 e7be
00000330: 4046 e7bd 99a2 91bd 542b c0bd d095 00be
00000340: fd77 25be 52b7 453e 7d37 37bd 074c 3d3d
00000350: 9546 c3bd 1802 dc3d d7e3 f23d aea6 cabc
00000360: fd34 3b3d 004d 37ba 42d4 c03c 446a 35bc
00000370: 2039 2fbd 7db8 523d b695 de3c 10ef a6bc
00000380: e0fb 61bc e8a3 2fbe 72c1 6c3e 1a6e 4139
00000390: 402b 4b3d 3fd1 79bc caf9 cebe cfa4 903d
000003a0: c3c2 2ebd 49c5 7abe 67ce d3be 8692 f23c
000003b0: ab33 c0be d88c 7a3d 48e4 223e c3b9 9d3d
000003c0: 6a65 03bd 9e38 b2bd 4763 043e b442 773b
000003d0: b660 c03c 544a 13be 05c1 f83c adde 843c
000003e0: 77fa 83bc 23bc 0c3e 7250 113b 0e97 aa3d
000003f0: 0fab 4bbe b551 56bd d9f2 9c3d 27f7 b0bd
-0.2443044 -0.046678547 0.22850552 0.16759902 0.094767116 -0.11838343 0.119622424 0.056008406
0.061090313 -0.20486754 -0.26754728 0.3184442 0.12239784 0.042577524 -0.26413748 0.20803659
-0.03628374 -0.036322832 -0.123886965 -0.1421357 -0.1103839 0.011272402 -0.05187572 -0.16081397
-0.009219443 -0.13961074 -0.032156203 -0.06830594 -0.029776081 -0.1453389 0.18097039 0.056758955
0.17340946 0.08826716 -0.057865214 -0.07251359 0.17644905 0.04631045 0.17630017 -0.16044049
-0.12170462 0.1505711 -0.13851865 -0.12574854 0.1309664 -0.17495188 -0.109083846 -0.43840984
0.0039187954 -0.098191105 -0.042547904 -0.00031792032 0.031481564 0.1438264 -0.41030034 -0.32915238
0.07143426 0.0015481587 -0.10267325 -0.18567322 -0.32382312 -0.20067467 -0.16649845 0.039026737
0.07882911 0.17164814 -0.030023355 -0.2416278 -0.70100373 -0.017888585 -0.07087741 -0.38397595
-0.20248324 -0.013562661 -0.31327343 0.093777776 0.021261923 0.09714196 0.01416033 -0.04042333
-0.15220438 -0.117127925 0.018296469 0.2255353 0.021547742 0.15078469 -0.015341194 0.14372526
-0.05851088 0.18163595 0.033381492 0.025358865 -0.08020941 -0.2750339 0.011611938 0.2226534
0.1339851 -0.016719203 -0.14992954 -0.43219203 -0.08193788 0.01331577 -0.06694982 -0.06083939
-0.14951007 -0.052566696 -0.16708654 -0.19257776 0.08018173 -0.1668081 -0.23938718 -0.09444251
0.087634 0.3259741 -0.15777504 -0.25282252 0.23740837 -8.687554e-05 -0.025052901 -0.13892752
0.07264612 0.15792117 -0.04061474 0.2839929 -0.041080233 0.004493565 -0.117963865 -0.15938282
0.18909813 0.005933186 -0.3178488 -0.36209887 -0.061206844 -0.2737097 -0.25175598 0.10067354
-0.14967608 0.0026907753 0.28032535 -0.18621647 -0.23433426 0.20134881 0.024784029 -0.008222413
0.075997695 0.07683004 -0.0617338 -0.0075271707 -0.26031023 0.090873614 0.014040807 -0.061748497
-0.02497578 -0.23667066 -0.012191404 -0.13784154 0.21481222 0.04460385 -0.11255354 0.10179087
-0.0668552 -0.0058575775 0.089140065 -0.014810289 -0.16519152 0.081458054 -0.0024155895 0.26767215
-0.016233709 -0.19262971 0.23787397 -0.25707746 -0.3871579 -0.20270616 -0.009927787 -0.12336012
0.17825216 0.21318258 -0.011083982 -0.1327013 0.014362052 -0.030396204 0.14013794 0.18017748
-0.031044126 -0.11393029 0.19631544 -0.02380648 -0.07793218 0.1141459 -0.017870618 0.0839395
0.01429108 -0.3046754 0.154084 -0.119220406 -0.2583302 0.03418144 -0.25587952 -0.07720826
0.30019534 -0.015730513 0.101827934 -0.45210245 -0.11292696 -0.07111091 -0.09383264 -0.12557149
-0.16159053 0.19308212 -0.044730652 0.046215083 -0.09534947 0.10742587 0.11859863 -0.024737682
0.04570483 -0.000699237 0.023538712 -0.011072699 -0.042779088 0.051445473 0.027170997 -0.020377666
-0.013792962 -0.17152369 0.23120669 0.0001844693 0.049601793 -0.015247642 -0.4042495 0.07062685
-0.042666208 -0.24489321 -0.4136841 0.029610883 -0.3753942 0.061169475 0.15907395 0.07701447
-0.032079138 -0.08702205 0.12928496 0.0037728967 0.023483615 -0.14383823 0.030365476 0.016219461
-0.016110642 0.13743643 0.0022173193 0.08329593 -0.19889472 -0.052324016 0.07663507 -0.086408906

features.3.bias f4 [64]
00000000: 9e43 afbd 6a4b c83d 5b1a f03d bb8e fc3d
00000010: 8793 483d 44b2 d6bd 22fc 97bc e14b f5bd
00000020: 30cc 53bb b2f4 fc3d d00f 863c 9651 533d
00000030: f2a7 71bd 4e23 df3b b3aa 65ba 9471 04be
00000040: eaea 0cbd 3f57 efbc 23e2 88bd fb6c 88bc
00000050: 2d9a 80bd 152c 983e 6ee8 343e 3e0c 023e
00000060: 2e14 38be 273a 58bd 6d83 b63c 02a8 233e
00000070: e6d4 74bd 22dd 8abd 5ab9 88bd fec1 3abe
00000080: c758 c93d e209 fdbc 020d 7bbe 7dd9 00b7
00000090: b98f aa3d 61fa 2ebd 73d9 9bbd a9c9 a4bd
000000a0: f214 fcbd ea28 473c 06b8 b2bd c9a5 4dbe
000000b0: 0326 9cbb 8e14 253e e169 ab3d 0660 c6bd
000000c0: 8176 87bd c30d 8abe 741d 11bd 1749 d4bd
000000d0: 921c ddbd 6dee 023c 6a68 263d 724d 573d
000000e0: 415c 1e3e 4585 1b3e 2221 81bd 97ea 8cbe
000000f0: fecd a5bd 0e3d 503d 6c5b 87be bd05 a4bd
-0.08557819 0.09780009 0.11723777 0.12331911 0.048968818 -0.1048322 -0.018552843 -0.119773634
-0.003231775 0.123513594 0.016364962 0.05159148 -0.058998056 0.0068096286 -0.0008761093 -0.12933952
-0.03440372 -0.029216407 -0.06683757 -0.016653528 -0.06279407 0.29721132 0.1766679 0.12699983
-0.17976448 -0.052789833 0.022279466 0.15982059 -0.05977335 -0.06780459 -0.06675978 -0.18238065
0.09831386 -0.030888502 -0.24516681 -7.6800325e-06 0.08328194 -0.04271925 -0.076098345 -0.08046276
-0.123086825 0.012155751 -0.08726506 -0.20082773 -0.0047652735 0.16121122 0.08369804 -0.09686284
-0.066144 -0.26963624 -0.03542848 -0.10365503 -0.10796465 0.007991415 0.04062692 0.052564092
0.1546488 0.15187557 -0.06305148 -0.27522728 -0.080959305 0.050839476 -0.26436937 -0.08008907

classifier.weight f4 [10, 3136]
00000000: f6d9 f43a eb49 abbc e855 a23d 871f 42be
00000010: c0af dbbd 6354 79bc 66d8 f9bc 127e 57bd
00000020: 660d 46bd f12d fa3d 23bd 53bc d449 e63d
00000030: 45a2 083e 83f0 88bd 5797 203d 01e3 103b
00000040: 9e38 12bc c3be a73c 07d8 4fbd 25ee 2dbe
00000050: 870f 5a3e dc7d e03d 65b8 8f3d e80a 283e
00000060: 5b62 45bb cc3b 4b3e c95a 25be fd4d 293e
00000070: 8fe6 393b 079e 96be 6d6d 253c f1b1 52be
00000080: 578c efbd 8b48 3b3e e0fc f83c c08d 4e3c
00000090: 162e 6fbe db48 91bd 5737 623d 968f b7bb
000000a0: 2c9c a9bd d2fd 853d cedd 4fbd 79da 1fbd
000000b0: dd8f b6bc b0f1 01be c870 febc 2e68 8c3d
000000c0: 3af8 01be edd9 b43d 6e7b 2cbe ce1e b0bd
000000d0: 144c 88bd 4007 2fbe 8bd4 173e d247 023e
000000e0: 95c9 bcbd afae 33be 31e4 86bd 4ff3 e83c
000000f0: aeab efbc efaa 123e 91a9 bf3d 9668 25be
00000100: f10d 0b3d f4cf 77bd a554 a9bc 9dc3 94bd
00000110: 93e4 9b3d eac8 40bd 4db8 51bd 3214 ce3d
00000120: dec8 d53c 14b7 413b a75a 3b3e 62aa 653b
00000130: 30e1 12bd 271f fd3d 1325 b13c 345c 4b3d
00000140: ddc1 01be f29d 54bd 692c 893c 1ed0 13be
00000150: 53cd 77be 7cb9 3d3e 5000 94bd 8ce7 9b3d
00000160: 5815 c23c 1e71 e6bc d52b 8abe 2c1a 9dbd
00000170: 279b 80bd 207f 35bd 852e 59bd ed38 83bd
00000180: 2c25 77bd 00ed c3bd 9811 153e aed5 bf3d
00000190: 7baf d6bd e10d c5bc 864f 15bd b2d9 7a3d
000001a0: 4f3a abbb 53f5 023d 1ad2 7aba 2faa a5bd
000001b0: c412 153e 6b40 813d ecc3 12be 5ef9 1fbe
000001c0: dfdb ff3d f9fb 9a3d d46b b8bc 4e4d 053d
000001d0: 5adc 863d a390 973e 3b6a 4bbe 12fc 103e
000001e0: 6dad 1a3e 7157 97be 2ac0 4dbe a4ee 893d
000001f0: 2bd5 92bd 8ac9 673e 15a8 183d 6817 b13d
00000200: 7ba8 803c ad3a c63c 3343 0a3d d484 70be
00000210: 3e41 35be e553 1e3e 9671 c3bd 8107 d5bd
00000220: 880b ccbc 5836 afbe adef 4cbe 428e 5cbe
00000230: 6802 473c 5d1e ab3d 315c fdbc ea60 41bc
00000240: 6476 1b3d 386b fdbd 1bdb fd3c 4149 3cbe
00000250: 851d 88bd 0185 b73c d0ee 9bbe eaa0 8e3e
00000260: 33d7 723e 9ba3 87bd ba9c 81bd 4cb3 f23d
00000270: 8f17 17be 5fae 83be 4143 9c3c 47e8 5b3b
00000280: 1912 03be 23b6 833d d59b 42bc a46e 483d
00000290: b79e 36be f044 48bd 7516 c93d e981 58bd
000002a0: 0493 033e 1dd2 7c3d 41a6 c9bd 7c88 5bbe
000002b0: 3cf7 b0bc 5ab8 62be c198 29be 529d 8e3d
000002c0: dbc5 c23d 37ed 3c3d e4cf 2ebe 44c4 a03d
000002d0: 5a58 84be c3ae 40be 4014 f33d 053a 16bd
000002e0: 4be1 a4bd 15f5 58be 7dc1 873d 5ca7 25be
000002f0: c614 31bc cd5c efba 4409 253e c979 773e
00000300: cbd1 03be bb9d d23c 7a38 353e 7cbe 0cbe
00000310: 920c 0abd 6462 ba3d 19b0 bf3c 6f82 a6bd
00000320: f345 5b3e 1f70 0cbe 4664 8f3d 6bdf e63c
00000330: 4923 d13d b3fc 46bd d4a3 0dbe f3c7 d93d
00000340: 4701 ca3c ce32 06bd 678d d33b e41d 48be
00000350: f510 973d e86d 92be fac4 41be a940 fd3c
00000360: 203b 66bd 4f7f 3fbe 237c 98bd d22b 363d
00000370: 9dd9 2cbe dd70 8d3c a207 17be dc28 2ebe
00000380: 04ba 37be b2c6 0f3d cbfb f13d 1c69 c7bc
00000390: 047b cfbd 6ead c93d c042 8fbe 4f18 00be
000003a0: bd36 263d 4546 333d 33fc 85bd 765e 263d
000003b0: bb10 a53d 63ce 71bc ddab 29be 591c 0c3e
000003c0: 1c15 bfbd e921 043e 91d0 64bd f316 213e
000003d0: 3d26 8ebd a132 613d 6a54 4dbd 7be2 163e
000003e0: 94ff 09be 7f28 3d3e 9a72 e5bc 80ba e83c
000003f0: 2209 8bbd 666c 31be d7d8 ea3d 4e85 6cbd
0.001868068 -0.02090927 0.079265416 -0.18957339 -0.10726881 -0.015217873 -0.030498695 -0.052610464
-0.04835262 0.12215794 -0.012923512 0.1124455 0.13343151 -0.06686499 0.03920683 0.002210796
-0.008924631 0.020476704 -0.05074313 -0.16985376 0.21294986 0.10961506 0.07017592 0.1641041
-0.003011844 0.1984703 -0.16147913 0.16533656 0.0028366183 -0.2941744 0.01009689 -0.20575692
-0.116966896 0.18289392 0.030394018 0.012607038 -0.23357424 -0.07093974 0.055228557 -0.0056018336
-0.082817405 0.06542553 -0.05074864 -0.03902671 -0.022285396 -0.12689853 -0.031059638 0.06855808
-0.12692347 0.088306285 -0.1684396 -0.085996255 -0.06655136 -0.1709261 0.14827172 0.1272271
-0.09218136 -0.17547105 -0.06586493 0.028436331 -0.029256668 0.14323018 0.09358514 -0.16153178
0.033948842 -0.060501054 -0.020670244 -0.07263873 0.076119564 -0.047066607 -0.051201154 0.10062446
0.026096758 0.0029558586 0.182963 0.0035044183 -0.035859287 0.123594575 0.021624124 0.04964848
-0.12671609 -0.05190844 0.01674481 -0.14434859 -0.24199419 0.18527788 -0.07226622 0.076125234
0.023691818 -0.02813011 -0.26986566 -0.076710075 -0.06279593 -0.04431069 -0.05302288 -0.06407342
-0.060338184 -0.095666885 0.14557493 0.09366928 -0.10482689 -0.02405447 -0.036452793 0.061242767
-0.005225457 0.03197224 -0.0009568051 -0.080891006 0.1455794 0.06311115 -0.14332551 -0.1562247
0.12493109 0.07567591 -0.022512354 0.032544427 0.065849975 0.29602537 -0.19864742 0.14158657
0.15105219 -0.295589 -0.20092836 0.0673497 -0.07169565 0.22635475 0.03726967 0.086470425
0.015705338 0.0241979 0.033755492 -0.2348817 -0.17700669 0.1546169 -0.09543149 -0.10401822
-0.024907842 -0.34221148 -0.20013304 -0.21538642 0.01214657 0.08355401 -0.03092775 -0.011802891
0.037954703 -0.12373966 0.030988267 -0.18387319 -0.066462554 0.022402288 -0.30455637 0.27857143
0.23714904 -0.06623002 -0.06328721 0.118506044 -0.1475508 -0.25718972 0.019075038 0.0033555196
-0.12799872 0.06431224 -0.011877974 0.04893364 -0.17833982 -0.04889387 0.098187365 -0.052858267
0.12849051 0.061723817 -0.098461635 -0.21438783 -0.021602266 -0.22140637 -0.16562177 0.069636
0.09510394 0.046124663 -0.17071491 0.07849935 -0.25848657 -0.18816666 0.11869097 -0.036676425
-0.08050784 -0.21187241 0.06628702 -0.16177124 -0.010808175 -0.001826191 0.16116816 0.24167551
-0.12872998 0.025709977 0.17697325 -0.13744539 -0.033703394 0.09100798 0.0233994 -0.08130347
0.21413402 -0.13714646 0.070015475 0.028182706 0.10211808 -0.048580837 -0.13832027 0.106338404
0.024658812 -0.032763295 0.0064560655 -0.19542652 0.07376281 -0.28599477 -0.18922797 0.030914621
-0.05620873 -0.18700908 -0.07445552 0.044475384 -0.16879888 0.017265731 -0.14749005 -0.17007774
-0.17942053 0.0351016 0.11815604 -0.024342112 -0.10130885 0.09847532 -0.27980614 -0.12509273
0.040579546 0.043768186 -0.06542244 0.04061743 0.08059832 -0.014758679 -0.16569467 0.13682689
-0.09330198 0.1290356 -0.055862967 0.1573141 -0.06940887 0.054979924 -0.05012933 0.14734833
-0.13476402 0.1847248 -0.028008748 0.028409243 -0.06788851 -0.17326507 0.1146714 -0.057744317

classifier.bias f4 [10]
00000000: bb97 a13c 9352 33bd 3b53 9b3c eac5 5c3d
00000010: 35cc d4bd c36f 57bd b5ea c53c 6788 963d
00000020: d19b 083c a710 843c
0.019725671 -0.04377992 0.018960586 0.053899683 -0.10390512 -0.05259682 0.024159769 0.073502354
0.008337931 0.016121222
