pytorch/p2-MNIST_conv/model.pt (torch_old, 202533 bytes, 6 tensors)

features.0.weight f4 [32, 1, 3, 3]
0.2653982 0.5394744 0.09784599 0.18060027 -0.1551647 0.10062205 -0.56814724 -0.3658864
-0.08396587 0.058501787 0.44522744 0.354522 -0.14785026 -0.2212375 0.2872043 -0.48025417
-0.18399814 -0.306873 -0.049332827 0.22306335 -0.22244988 -0.26279098 -0.80058664 -0.29932675
-0.55736864 0.018390832 0.569623 0.45937943 0.33889103 -0.33071902 -0.35430244 -0.600929
-0.26351333 -0.21789643 0.17101128 -0.031254802 0.020838648 -0.23522815 -0.31177002 -0.096955344
-0.08406162 -0.10301635 -0.014615297 0.06545153 0.09940922 -0.26846012 0.29580876 0.10784298
0.13833648 -0.16003424 0.11233291 0.1953901 0.22363903 0.0022486944 0.36347252 -0.11869358
0.39285487 -0.14618088 -0.074079 -0.09685496 -0.41831532 -0.33746952 -0.3503088 -0.4107723
-0.5280833 -0.4381965 -0.1702365 0.028363353 -0.24609178 0.35778147 0.40674803 0.17165698
-0.3606118 -0.40418226 0.0012538777 -0.11133804 -0.43591043 -0.5771206 0.41212532 0.3394474
-0.39519268 -0.56661326 -0.412821 -0.29340976 -0.34345534 -0.09310869 -0.017092887 0.3703127
0.46235088 0.4401302 0.07136127 -0.0292175 -0.13332742 0.3532607 0.40121466 -0.28318885
-0.15650441 0.17251803 0.18396127 -0.12982619 -0.24498649 0.3362608 0.32697105 -0.08481561
0.37362954 0.29361525 0.22925824 -0.37240267 -0.57021546 0.3425436 0.17801835 -0.5206079
-0.04693592 0.28464428 0.07825571 0.08687543 0.15412964 0.171256 0.12899926 0.013415498
0.30928612 0.15850107 -0.3278128 0.19282836 0.0060002333 0.18508269 0.0209213 0.18325053
-0.034366224 0.4318082 -0.044455912 -0.4514364 0.5095616 -0.17798468 -0.4614664 -0.11362064
0.35577813 0.30843017 -0.4812962 -0.0968527 -0.10400154 -0.40940988 -0.539913 -0.20873351
-0.3370725 -0.23909605 -0.17267382 -0.011176568 0.326814 0.5541224 0.47329348 -0.11632361
-0.26079822 -0.21302667 0.020140098 -0.29393843 0.2383473 0.48531243 0.027126992 -0.31540403
0.39083543 -0.008330801 0.5554208 0.64376503 0.0082091 0.35691717 -0.046716318 -0.27365628
-0.2515669 -0.7568817 -0.35546827 0.24026741 -0.37202528 -0.3337045 0.5378182 -0.24147984
0.046133913 0.13503891 0.44584 0.0081966985 0.21123916 -0.11121193 -0.30140585 0.03987782
0.08375511 0.24982244 0.24535646 -0.36757162 -0.20601878 0.034663342 -0.09106111 -0.3753373
0.24868952 -0.053532902 -0.5596033 0.23187043 0.48281786 0.009171555 0.2252936 0.3378951
-0.32906055 0.103538625 0.3018568 -0.05924272 0.25638765 0.31874412 -0.16968033 0.21927696
-0.07261289 -0.55660987 0.23562169 -0.0605629 -0.4091632 0.48317862 -0.016424786 0.376641
-0.4606809 0.3253502 0.19985572 0.09944773 -0.2355312 0.337608 -0.30650574 -0.20872496
0.36844438 0.48941723 0.28797922 -0.2209836 0.162544 -0.2892283 0.12397695 0.017267423
-0.2652069 -0.429821 0.1887264 -0.11442398 -0.2596373 -0.26587772 0.049769267 0.3198657
0.06186955 0.2954103 -0.3595689 0.21071923 0.15598968 0.1726427 0.378443 0.2440284
-0.14464715 -0.0073677264 -0.007100972 -0.45953017 -0.27711946 0.17656802 0.31872556 -0.021363448
00000000: 46e2 873e ff1a 0a3f 7a63 c83d 47ef 383e
00000010: 7fe3 1ebe ef12 ce3d 1972 11bf 7655 bbbe
00000020: 4cf6 abbd 929f 6f3d daf4 e33e e883 b53e
00000030: 0f66 17be 158c 62be 710c 933e e0e3 f5be
00000040: 026a 3cbe 751e 9dbe 3811 4abd b86a 643e
00000050: e7c9 63be 8a8c 86be 3ff3 4cbf 5b41 99be
00000060: b6af 0ebf 5fa8 963c d0d2 113f c833 eb3e
00000070: 2083 ad3e 0154 a9be 2167 b5be 7cd6 19bf
00000080: 38eb 86be 3e20 5fbe 951d 2f3e 0905 00bd
00000090: d0b5 aa3c a6df 70be 52a0 9fbe 8690 c6bd
000000a0: 8028 acbd 3cfa d2bd 0075 6fbc 740b 863d
000000b0: 1097 cb3d 9b73 89be 3f74 973e c8dc dc3d
000000c0: 14a8 0d3e 04e0 23be cc0e e63d 5814 483e
000000d0: a101 653e d55e 133b 1219 ba3e 9f15 f3bd
000000e0: 4624 c93e 71b0 15be bbb6 97bd e55b c6bd
000000f0: 6d2d d6be cec8 acbe ad5b b3be bf50 d2be
00000100: 7830 07bf 4b5b e0be 7a52 2ebe 435a e83c
00000110: 7cff 7bbe 222f b73e 4741 d03e d9c6 2f3e
00000120: 1ca2 b8be faf0 cebe 2759 a43a 3305 e4bd
00000130: a72f dfbe 2dbe 13bf 1702 d33e 0dcc ad3e
00000140: b256 cabe 910d 11bf 465d d3be ce39 96be
00000150: 61d9 afbe c5af bebd 6206 8cbc a099 bd3e
00000160: 41b9 ec3e bf58 e13e dc25 923d 8a59 efbc
00000170: fc86 08be 96de b43e 026c cd3e 21fe 90be
00000180: b142 20be 91a8 303e 5860 3c3e 28f1 04be
00000190: bddd 7abe 602a ac3e c068 a73e ceb3 adbd
000001a0: 5f4c bf3e bd54 963e acc2 6a3e 90ab bebe
000001b0: a4f9 11bf e061 af3e 714a 363e 8f46 05bf
000001c0: e13f 40bd e5bc 913e 8844 a03d bfeb b13d
000001d0: 29d4 1d3e bc5d 2f3e 6218 043e adcc 5b3c
000001e0: c05a 9e3e 1b4e 223e 14d7 a7be cc74 453e
000001f0: 9b9d c43b 5186 3d3e 2563 ab3c 07a6 3b3e
00000200: 99c3 0cbd f715 dd3e 6717 36bd ac22 e7be
00000210: a172 023f 9e41 36be 5345 ecbe f0b1 e8bd
00000220: 8d28 b63e 8fea 9d3e 756c f6be b55a c6bd
00000230: c2fe d4bd 2c9e d1be bd37 0abf 3dbe 55be
00000240: c494 acbe 98d5 74be 68d1 30be ed1d 37bc
00000250: 2a54 a73e f7da 0d3f 8653 f23e 133b eebd
00000260: 5887 85be aa23 5abe d9fc a43c 197f 96be
00000270: 5111 743e df7a f83e 6d39 de3c a37c a1be
00000280: 951b c83e e97d 08bc 0f30 0e3f c9cd 243f
00000290: 767f 063c d9bd b63e 9c59 3fbd ad1c 8cbe
000002a0: 60cd 80be 00c3 41bf f0ff b5be a908 763e
000002b0: 197a bebe 51db aabe 74ae 093f 7e46 77be
000002c0: eaf6 3c3d a447 0a3e 2445 e43e 724b 063c
000002d0: 144f 583e 15c3 e3bd de51 9abe ed56 233d
000002e0: cd87 ab3d 74d1 7f3e b93e 7b3e 5932 bcbe
000002f0: 96f6 52be 26fb 0d3d 3f7e babd 362c c0be
00000300: 77a8 7e3e 5145 5bbd 2942 0fbf 716f 6d3e
00000310: e733 f73e 4a44 163c 5eb3 663e 9600 ad3e
00000320: a07a a8be 0f0c d43d f98c 9a3e 7fa8 72bd
00000330: 3e45 833e 6e32 a33e aec0 2dbe 248a 603e
00000340: 11b6 94bd fc7d 0ebf d046 713e ce10 78bd
00000350: d77d d1be 3063 f73e 468d 86bc 17d7 c03e
00000360: 5ede ebbe 4d94 a63e faa6 4c3e 40ab cb3d
00000370: 172f 71be f5da ac3e 52ee 9cbe ffbb 55be
00000380: bea4 bc3e e594 fa3e 0372 933e 8649 62be
00000390: ef71 263e bb15 94be a1e7 fd3d 6974 8d3c
000003a0: 33c9 87be 8011 dcbe 7e41 413e 1f57 eabd
000003b0: 2eef 84be 2021 88be dcda 4b3d 70c5 a33e
000003c0: ed6a 7d3d 0540 973e 6a19 b8be c8c6 573e
000003d0: c2bb 1f3e 3fc9 303e 48c3 c13e 95e2 793e
000003e0: 621e 14be f86c f1bb 45af e8bb 8a47 ebbe
000003f0: 9ae2 8dbe 3fce 343e ff2f a33e 6602 afbc

features.0.bias f4 [32]
-0.02285677 -0.0149938315 0.19166948 0.05834375 -0.21864903 -0.021231117 0.19579586 0.1431609
0.3294162 0.1118518 -0.14280982 -0.20594992 -0.000374123 -0.18673523 -0.0041205855 0.18831587
-0.16633031 -0.056369394 0.019029591 -0.26862162 -0.08266287 -0.07789514 -0.10283687 -0.13923214
-0.085632585 -0.020877995 -0.022141056 -0.055358693 -0.115299925 -0.1847838 -0.08948334 -0.22872007
00000000: 1f3e bbbc b0a8 75bc 0145 443e dbf9 6e3d
00000010: 88e5 5fbe e1ec adbc b67e 483e c598 123e
00000020: 3da9 a83e 8e12 e53d bd3c 12be 89e4 52be
00000030: f025 c4b9 8537 3fbe fa05 87bb e0d5 403e
00000040: 7e52 2abe 98e3 66bd f2e3 9b3c c688 89be
00000050: 274b a9bd 7d87 9fbd 239c d2bd df92 0ebe
00000060: 2360 afbd 5408 abbc 2961 b5bc ccbf 62bd
00000070: 5e22 ecbd f737 3dbe 0b43 b7bd 9835 6abe

features.3.weight f4 [64, 32, 3, 3]
-0.12976451 -0.24179639 -0.18796784 -0.17555632 -0.3196997 -0.17079549 -0.15110493 -0.19904114
-0.21857561 -0.09297034 -0.17025301 0.07635764 -0.029179204 -0.29137173 -0.0458825 -0.21989504
-0.38426417 -0.06694103 0.0009069938 0.041542225 0.012138793 -0.026847221 -0.09258508 -0.01544408
-0.034751523 0.0019708164 0.0729889 -0.051510513 -0.028701503 -0.05634292 -0.015945606 -0.19397606
-0.023312455 -0.027432267 0.022565292 0.09606683 -0.05630468 -0.010846145 0.0032329708 -0.015503459
0.024771165 0.029787626 -0.036045954 0.031575937 0.018487114 0.08373261 -0.121092126 0.038068328
0.058689762 -0.04409318 -0.08233345 0.11047055 0.036341187 -0.10390822 -0.022366716 -0.053812735
-0.029421045 -0.13742 -0.093235105 -0.028375229 -0.060865358 0.04699685 0.08463936 0.12177712
0.14894041 0.008692056 -0.031383056 -0.04137983 -0.07645789 -0.057873387 -0.13027017 -0.04482574
0.16048568 0.102948576 0.033151086 -0.08772306 0.036126208 0.021000253 -0.011070668 -0.09399868
0.005183076 -0.059629384 0.01048864 0.007690306 -0.10851267 -0.17875643 -0.13144273 0.0012550644
-0.19235939 -0.03410014 0.17499661 -0.04004139 -0.23156025 0.07481161 0.008003512 -0.17726083
0.10634769 0.058320493 -0.1296799 0.053034697 -0.03366436 -0.08466218 0.08433613 0.06445625
-0.118913084 0.10719715 -0.016120462 -0.13444605 -0.019017199 -0.17192829 0.10150468 0.105135076
-0.15099972 0.0063142544 0.108407125 -0.24947731 0.08558147 0.09815733 -0.06422686 -0.1577704
0.123855494 -0.008452605 -0.14186041 0.06943036 0.07416479 -0.07134112 0.19386064 0.08384901
-0.19480148 0.19461551 0.18807846 0.014675395 0.23564856 0.2942286 -0.108609505 -0.03303362
0.052677296 0.1670825 -0.039097838 -0.0910435 0.027052 -0.0993749 -0.104579195 0.07069002
-0.1658415 -0.15237807 -0.10606096 -0.23162784 0.012994133 -0.29149666 -0.10757662 -0.1613981
-0.22739682 0.1096328 -0.075474285 -0.18680923 0.092352316 0.030650454 -0.21803686 0.09920373
-0.06556359 -0.108233385 -0.15672359 -0.19619969 -0.16024943 -0.18209067 -0.06400983 -0.13364966
-0.08376402 0.022960614 -0.24783163 0.33367446 0.19185753 -0.17380615 0.19487686 0.12838805
-0.04931184 -0.07646402 -0.021755632 -0.15234938 0.07598557 0.024580589 -0.081555046 0.013158194
0.08473215 0.028774478 0.084557064 0.1213563 -0.01848394 0.21702594 0.14085326 -0.014986679
0.109201595 0.1064882 -0.06117174 0.043654803 -0.0066816993 -0.12843125 0.08156844 0.028271507
-0.22490992 0.069364734 0.089829504 -0.16541599 0.10632371 0.08410989 -0.100167155 0.20926647
0.10520777 -0.083257884 0.08231985 0.043760113 -0.066912316 -0.011711418 0.07989165 -0.097266994
-0.038080364 -0.19228211 0.12978213 0.174341 -0.08930598 0.18359073 0.033484966 -0.22072415
0.13647337 0.123353995 -0.10981905 -0.23327088 0.015923271 0.008527577 -0.05039077 0.08386568
0.16290076 -0.022589467 0.073119774 0.050416123 -0.06890988 0.08752865 0.024686595 -0.15716721
0.13302246 -0.002588152 -0.07134228 0.05819837 -0.15635166 -0.28613967 0.1283228 0.100007206
-0.1278714 0.100137524 0.14187706 -0.21847734 0.07330643 -0.15109748 -0.049817692 0.07883094
00000000: fde0 04be 7999 77be a47a 40be 09c5 33be
00000010: aeaf a3be 03e5 2ebe 40bb 1abe 71d1 4bbe
00000020: 49d2 5fbe 3c67 bebd ce56 2ebe 6561 9c3d
00000030: 3a09 efbc ad2e 95be 4aef 3bbd 2a2c 61be
00000040: 46be c4be 6118 89bd 53c3 6d3a 2e28 2a3d
00000050: cae1 463c b4ee dbbc 3f9d bdbd 2b09 7dbc
00000060: 9d57 0ebd d028 013b 347b 953d b0fc 52bd
00000070: 6a1f ebbc d5c7 66bd 5ca0 82bc a9a1 46be
00000080: c3f9 bebc a2b9 e0bc d9da b83c b0be c43d
00000090: bc9f 66bd 08b4 31bc 40e0 533b 3802 7ebc
000000a0: e6ec ca3c 2e05 f43c eca4 13bd c555 013d
000000b0: 4a72 973c 017c ab3d 26ff f7bd 89ed 1b3d
000000c0: ad64 703d 0d9b 34bd 719e a8bd 623e e23d
000000d0: 7fda 143d d5cd d4bd 673a b7bc be6a 5cbd
000000e0: 6704 f1bc d4b7 0cbe 0cf2 bebd 2b73 e8bc
000000f0: f44d 79bd c57f 403d 6757 ad3d 4866 f93d
00000100: d683 183e 2069 0e3c 858b 00bd e67d 29bd
00000110: f495 9cbd a50c 6dbd 8b65 05be 329b 37bd
00000120: 5c56 243e b4d6 d23d 6fc9 073d 26a8 b3bd
00000130: 13f9 133d b908 ac3c bf61 35bc 6182 c0bd
00000140: cbd6 a93b f13d 74bd 8bd8 2b3c f6fe fb3b
00000150: e43b debd ed0b 37be ec98 06be f980 a43a
00000160: dcf9 44be 97ac 0bbd 5032 333e 7102 24bd
00000170: 211e 6dbe d436 993d 2a21 033c dd83 35be
00000180: d1cc d93d 78e1 6e3d cfca 04be e93a 593d
00000190: a4e3 09bd 5d63 adbd 6cb8 ac3d a301 843d
000001a0: b488 f3bd 2e8a db3d 0f0f 84bc 3aac 09be
000001b0: f5c9 9bbc f80d 30be b0e1 cf3d 0f51 d73d
000001c0: ac9f 1abe cee7 ce3b 8e04 de3d fb76 7fbe
000001d0: 5645 af3d b606 c93d 5f89 83bd 908e 21be
000001e0: f3a7 fd3d cc7c 0abc db43 11be 8131 8e3d
000001f0: b6e3 973d 4b1b 92bd 6783 463e 08b9 ab3d
00000200: 0a7a 47be 4a49 473e a497 403e 1171 703c
00000210: db4d 713e 22a5 963e a96e debd 434e 07bd
00000220: 26c4 573d ad17 2b3e 0e25 20bd 0475 babd
00000230: 289c dd3c 1185 cbbd 9e2d d6bd eec5 903d
00000240: 5bd2 29be ff08 1cbe 7d36 d9bd d92f 6dbe
00000250: 58e5 543c 0d3f 95be 2251 dcbd 8b45 25be
00000260: b6da 68be 2987 e03d 4392 9abd eb4a 3fbe
00000270: 3623 bd3d a916 fb3c 0e45 5fbe 532b cb3d
00000280: 3446 86bd 77a9 ddbd 267c 20be 92e8 48be
00000290: 6d18 24be fa75 3abe 9617 83bd 75db 08be
000002a0: 788c abbd e617 bc3c 93c7 7dbe 61d7 aa3e
000002b0: 4d76 443e 3dfa 31be cd8d 473e 2878 033e
000002c0: 36fb 49bd 2b99 9cbd de38 b2bc 7a01 1cbe
000002d0: 539e 9b3d 3b5d c93c 5506 a7bd 7795 573c
000002e0: 0d88 ad3d 74b8 eb3c 412c ad3d a789 f83d
000002f0: a26b 97bc 0c3c 5e3e d63b 103e b08a 75bc
00000300: 16a5 df3d 7c16 da3d 388f 7abd 61cf 323d
00000310: 28f2 dabb 7b83 03be 5b0d a73d a699 e73c
00000320: c94e 66be 190f 8e3d 88f8 b73d cf62 29be
00000330: 3fc0 d93d ce41 ac3d 7024 cdbd f349 563e
00000340: 2c77 d73d 1c83 aabd 4f97 a83d ce3d 333d
00000350: 5309 89bd 3fe1 3fbc 3c9e a33d eb33 c7bd
00000360: 28fa 1bbd 9ae5 44be 9be5 043e 7286 323e
00000370: 0ee6 b6bd 35ff 3b3e 8827 093d 8305 62be
00000380: adbf 0b3e 05a1 fc3d cfe8 e0bd 90de 6ebe
00000390: 8571 823c 40b7 0b3c 8d66 4ebd c5c1 ab3d
000003a0: 75cf 263e 8c0d b9bc d2bf 953d 2381 4e3d
000003b0: a020 8dbd 3942 b33d 8b3b ca3c 71f0 20be
000003c0: 0a37 083e fc9d 29bb e71b 92bd 6a61 6e3d
000003d0: a61a 20be e680 92be 0d67 033e 94d0 cc3d
000003e0: b8f0 02be e714 cd3d 3848 113e 86b8 5fbe
000003f0: ae21 963d 4cb9 1abe a30d 4cbd 1e72 a13d

features.3.bias f4 [64]
-0.01926389 0.017499365 0.037084956 -0.04586692 -0.060411558 -0.0048197825 -0.07234078 -0.048707157
0.051050846 -0.0705269 -0.14170206 -0.056306526 -0.015839849 -0.07998054 0.03872283 -0.054337308
-0.01956708 -0.04531017 -0.08520243 -0.009778026 -0.118201494 -0.071068026 -0.021652594 -0.123880915
-0.01735379 -0.021425145 -0.03173025 -0.044977486 -0.061110407 -0.007947544 -0.054378577 0.022052227
-0.026233304 0.005132314 -0.044415753 -0.065048784 -0.054720186 -0.05399564 -0.025423435 -0.049724642
0.022266269 -0.053902924 -0.047069862 0.008690011 -0.049186632 0.0013588333 -0.07503086 -0.038483962
0.012790989 0.0435796 -0.07140481 -0.08349561 0.0215881 -0.04840222 0.060046528 0.00095338275
-0.10991021 0.033549257 -0.046562783 -0.036589604 -0.11202742 -0.035138212 -0.08495308 -0.007093535
00000000: 4ecf 9dbc d45a 8f3c 65e6 173d f4de 3bbd
00000010: 1c72 77bd 44ef 9dbb 6727 94bd 2881 47bd
00000020: b11a 513d 6870 90bd 581a 11be aca1 66bd
00000030: 92c2 81bc d6cc a3bd d59b 1e3d cc90 5ebd
00000040: 244b a0bc 2897 39bd 9d7e aebd 0334 20bc
00000050: a013 f2bd 1d8c 91bd c860 b1bc 47b5 fdbd
00000060: 8929 8ebc c983 afbc 94f7 01bd 503a 38bd
00000070: e84e 7abd 6a36 02bc 12bc 5ebd dfa6 b43c
00000080: 3ae7 d6bc f82c a83b 4bed 35bd 4c38 85bd
00000090: 4622 60bd 882a 5dbd cf44 d0bc 11ac 4bbd
000000a0: c067 b63c 50c9 5cbd 54cc 40bd 8c60 0e3c
000000b0: ec77 49bd e11a b23a c8a9 99bd 5ca1 1dbd
000000c0: 4c91 513c 8680 323d af3c 92bd bfff aabd
000000d0: 87d9 b03c 6841 46bd 59f3 753d 6fec 793a
000000e0: 9b18 e1bd f26a 093d 9eb8 3ebd fbde 15bd
000000f0: a26e e5bd 16ed 0fbd e1fb adbd e270 e8bb

classifier.weight f4 [10, 3136]
-0.012911197 -0.057659734 -0.1017823 -0.041162398 -0.06139321 -0.055973962 -0.0012944173 -0.006142622
-0.08876366 -0.13450974 -0.09847686 0.0067712003 -0.022479083 0.04891471 0.0036797684 -0.07815668
0.08717542 -0.0014698901 0.07223984 0.031627752 0.05294071 0.014678878 -0.051292606 0.058962006
0.17744276 -0.03903702 -0.01928468 0.069305606 0.017860295 0.05336565 0.009519667 0.12529807
-0.068932794 -0.029564664 -0.034260776 0.04980873 0.06791911 0.037521236 -0.25834632 -0.26551297
-0.16642357 -0.1443377 0.012647847 0.027013494 0.085401036 -0.30799726 -0.4110802 -0.1894099
-0.1486158 -0.008198496 -0.006951303 -0.018547269 -0.03068103 -0.024616586 0.024622286 0.009047797
-0.0037598552 -0.031143496 0.0040733293 0.0017455381 -0.0063356883 0.004682803 0.003012865 -0.025317768
-0.019880068 -0.008438045 0.012269723 -0.016374221 0.005713781 -0.0053489725 0.0103095835 0.013315704
0.009089142 -0.015116005 -0.009952122 0.018112417 -0.006652437 0.0031905551 0.0049940157 -0.0032734792
0.002234476 -0.0066948463 0.0054383236 0.01267984 0.01487232 0.01825211 0.008023524 -0.021845385
-0.015952628 0.006770798 -0.0049412334 -0.0007338064 0.004129991 0.0061558695 0.0016882054 -0.013841635
-0.02009168 0.0026401638 -0.00681974 -0.004523355 -0.06825679 -0.024101373 -0.0031411222 -0.033997457
-0.007521509 -0.0038603575 -0.02922842 0.01564528 -0.07380238 0.009863744 -0.032826636 0.03677963
0.0011554658 0.058663514 0.12241612 0.072755754 0.048824493 0.09140176 0.021720538 0.03397646
0.060141288 0.049656317 -0.011381911 -0.037557606 -0.0059210793 0.09531313 -0.0063078254 -0.10314493
0.042048745 -0.07564833 -0.03880905 0.0062282076 0.013280203 -0.010023551 0.03894652 0.001302015
-0.07806803 0.033506732 -0.084698915 -0.031014603 -0.00912979 0.021067949 -0.011806016 -0.008756181
-0.0034655682 -0.045179214 -0.02371282 -0.014353947 0.01474707 -0.01881736 -0.0068222843 -0.017363684
0.008102241 -0.00050765835 -0.008511435 -0.011676182 -0.0054329983 -0.0029892642 0.0037543082 -0.022504816
4.0121377e-06 0.0013332795 0.0018274853 0.0018958148 0.00027137258 -0.009381741 -0.0072726323 0.014720961
-0.012984146 0.019625267 0.013898622 -0.0059815054 0.0018741072 -0.0053385547 0.014551164 0.0051044933
0.0112043 -0.022735192 -0.018710313 -0.0007506435 -0.0076516494 -0.015735276 0.0060530975 -0.012352099
-0.0013008789 0.01079019 -0.019267727 0.007189149 0.0031596888 0.0047909766 0.003119316 0.0045477836
-0.012027966 0.0019949137 0.011754565 -0.0007449258 -0.0015973228 -0.034150388 0.016499043 -0.08591572
0.054854278 -0.020325154 0.0020556853 0.04760104 0.0055560614 -0.034650445 0.010757226 -0.08928525
0.026540557 0.04725302 -0.011343112 -0.03639855 -0.030449703 0.0021510704 0.03493673 0.093572356
-0.057498056 -0.015378794 0.019749504 -0.06176436 0.1419893 0.067762725 0.008793401 0.018961273
0.010736135 0.042557348 0.011344839 0.179496 -0.14354716 -0.04463142 -0.049808994 0.056721956
0.07135533 0.087247126 0.1583429 -0.1116295 -0.12164447 -0.08697211 -0.012960372 -0.009607646
-0.036041617 -0.009731351 -0.01853961 -0.013199901 -0.013382851 0.00387144 0.0022696138 -0.013458184
-0.016785935 -0.007605009 0.007592271 -0.02429228 0.014033458 -0.0055143796 -0.01111736 0.00394603
00000000: 7c89 53bc 9d2c 6cbd 3d73 d0bd e799 28bd
00000010: 7277 7bbd f444 65bd 70a9 a9ba 0c48 c9bb
00000020: b9c9 b5bd ecbc 09be 3cae c9bd f2e0 dd3b
00000030: 0e26 b8bc ca5a 483d 4528 713b 9c10 a0bd
00000040: 0789 b23d 54a9 c0ba 7bf2 933d 1a8c 013d
00000050: 5cd8 583d ad7f 703c 3218 52bd 2582 713d
00000060: 8eb3 353e 48e5 1fbd e8fa 9dbc 19f0 8d3d
00000070: c14f 923c f195 5a3d 61f8 1b3c 234e 003e
00000080: a32c 8dbd 9831 f2bc 0755 0cbd 3d04 4c3d
00000090: 2d19 8b3d deaf 193d f845 84be 51f1 87be
000000a0: f16a 2abe 43cd 13be ea38 4f3c 674b dd3c
000000b0: bde6 ae3d d1b1 9dbe 1b79 d2be abf4 41be
000000c0: be2e 18be fc52 06bc c2c7 e3bb 71f0 97bc
000000d0: c956 fbbc b9a8 c9bc adb4 c93c 363d 143c
000000e0: e767 76bb a520 ffbc 9079 853b 8aca e43a
000000f0: 9b9b cfbb 3372 993b 7d73 453b 3567 cfbc
00000100: 86db a2bc ba3f 0abc f306 493c 3b23 86bc
00000110: ab3a bb3b 6f46 afbb 87e9 283c 1c2a 5a3c
00000120: a0ea 143c 1fa9 77bc 3a0e 23bc 7e60 943c
00000130: b0fc d9bb a218 513b d7a4 a33b de87 56bb
00000140: 4970 123b 7160 dbbb f733 b23b 1bbf 4f3c
00000150: 08ab 733c 7385 953c 1975 033c 18f5 b2bc
00000160: 16af 82bc 92dd dd3b 12ea a1bb ea5c 40ba
00000170: e054 873b 2db7 c93b c646 dd3a 06c8 62bc
00000180: 4f97 a4bc 9906 2d3b 2078 dfbb a738 94bb
00000190: 37ca 8bbd 3e70 c5bc 49db 4dbb eb40 0bbd
000001a0: fe76 f6bb 0dfe 7cbb 7170 efbc 882a 803c
000001b0: b425 97bd 8a9b 213c 3975 06bd 3da6 163d
000001c0: 0073 973a 2749 703d 4db5 fa3d f800 953d
000001d0: 31fc 473d d930 bb3d 45ef b13c e72a 0b3d
000001e0: b656 763d 6c64 4b3d 327b 3abc 01d6 19bd
000001f0: 9d05 c2bb 8833 c33d e0b1 cebb a63d d3bd
00000200: 4e3b 2c3d 83ed 9abd 3df6 1ebd fe15 cc3b
00000210: 3595 593c d239 24bc 6386 1f3d 60a8 aa3a
00000220: 22e2 9fbd 5b3e 093d a076 adbd 5612 febc
00000230: 1d95 15bc b196 ac3c 056e 41bc 1676 0fbc
00000240: 961e 63bb d70d 39bd 6341 c2bc d12c 6bbc
00000250: b29d 713c dd26 9abc 788d dfbb 493e 8ebc
00000260: 43bf 043c 6014 05ba 8c73 0bbc 754d 3fbc
00000270: 4b07 b2bb 88e7 43bb d70a 763b 055c b8bc
00000280: 00a0 8636 70c1 ae3a 3b88 ef3a fd7c f83a
00000290: 0347 8e39 e0b5 19bc 434f eebb 3030 713c
000002a0: 75bb 54bc 2bc5 a03c 0cb7 633c 8100 c4bb
000002b0: 9aa4 f53a 0bef aebb 0168 6e3c 9843 a73b
000002c0: 3e92 373c 273f babc 5f46 99bc d5c6 44ba
000002d0: b0ba fabb 44e7 80bc 1059 c63b 7560 4abc
000002e0: 4182 aaba 56c9 303c 5ad7 9dbc f492 eb3b
000002f0: c812 4f3b a0fd 9c3b 706d 4c3b 9305 953b
00000300: f210 45bc 19bd 023b 3896 403c 2047 43ba
00000310: 425d d1ba 47e1 0bbd 0029 873c 95f4 afbd
00000320: e1ae 603d f080 a6bc adb8 063b 4ff9 423d
00000330: 9f0f b63b a0ed 0dbd 133f 303c 2fdb b6bd
00000340: 956b d93c 628c 413d 76d8 39bc a516 15bd
00000350: a871 f9bc f9f8 0c3b d119 0f3d dda2 bf3d
00000360: 1583 6bbd 56f7 7bbc b6c9 a13c a0fc 7cbd
00000370: a565 113e 2fc7 8a3d 3212 103c ac54 9b3c
00000380: 9de6 2f3c 9d50 2e3d b4df 393c cdcd 373e
00000390: 07fe 12be 70cf 36bd 8404 4cbd 4855 683d
000003a0: be22 923d 9fae b23d a424 223e 029e e4bd
000003b0: bc20 f9bd 6f1e b2bd bd57 54bc 6369 1dbc
000003c0: 60a0 13bd 3f70 1fbc 61e0 97bc 6644 58bc
000003d0: bf43 5bbc fcb7 7d3b cdbd 143b b77f 5cbc
000003e0: a882 89bc 7033 f9bb 96c8 f83b 9b00 c7bc
000003f0: 97ec 653c f8b1 b4bb 9625 36bc b34d 813b

classifier.bias f4 [10]
0.0021969492 0.06442742 0.02927917 -0.020956317 -0.05402711 0.0214538 -0.030393159 0.0038449345
-0.024861313 -0.0036656058
00000000: b1fa 0f3b 86f2 833d dfda ef3c 95ac abbc
00000010: 884b 5dbd e1bf af3c 13fb f8bc 4cfb 7b3b
00000020: f4a9 cbbc a93a 70bb
